model_repository/dict_model/1/model.pt (torch, 14949 bytes, 6 tensors)

weight f4 [50, 10]
0	0x3e1c99ab	0.15292995
1	0xbe07f3c3	-0.13276581
2	0xbea03caa	-0.31296283
3	0xbe38e8f4	-0.18057615
4	0x3e1b582c	0.15170354
5	0x3deba28a	0.11505611
6	0xbd08b74c	-0.03337793
7	0x3c46f07b	0.012142296
8	0x3e8ee7ab	0.27911124
9	0x3e632b9c	0.22184604
10	0xbac7c6e2	-0.0015241767
11	0x3cdc7632	0.026911829
12	0xbe9f46e3	-0.3110877
13	0xbb327ee9	-0.002723629
14	0x3e0e5780	0.13900566
15	0x3e62385f	0.22091816
16	0xbcec94bb	-0.028879514
17	0xbdcadcfb	-0.0990543
18	0xbe7ec20b	-0.24878709
19	0x3d96dfaf	0.07366883
20	0x3e55e850	0.20889401
21	0x3d84def1	0.06487835
22	0xbe9579e9	-0.29194573
23	0xbe573ee0	-0.21020079
24	0x3e051055	0.12994511
25	0xbe90cc33	-0.28280792
26	0xbe937d83	-0.28806695
27	0xbe776b3a	-0.24161997
28	0x3d788305	0.060671825
29	0xbe908a2d	-0.2823042
30	0xbe31cae6	-0.17362556
31	0x3e610ab1	0.21976735
32	0xbe3b2a93	-0.1827796
33	0x3e801aea	0.25020534
34	0x3e4465e9	0.191795
35	0xbe871147	-0.2638037
36	0x3e4b3b97	0.1984695
37	0x3e57e376	0.21082863
38	0x3e2e0a8c	0.16996211
39	0x3e65cef4	0.22442228
40	0xbe82979c	-0.25506294
41	0xbc8cc788	-0.017184988
42	0x3dccd89a	0.10002251
43	0x3e4b0ac3	0.19828324
44	0xbd2a65cd	-0.04160099
45	0x3e647d48	0.22313416
46	0x3dd087f3	0.1018218
47	0xbd90ff22	-0.07079913
48	0x3dfbee60	0.12301326
49	0x3d767bee	0.060176782
50	0xbd586426	-0.052829884
51	0xbe9279bf	-0.2860851
52	0xbdbe901a	-0.09304829
53	0x3e598abe	0.21244332
54	0xbe7144fc	-0.23561472
55	0xbe0b0411	-0.1357577
56	0xbc6fc3a7	-0.0146340495
57	0xbe60aae2	-0.21940187
58	0xbda960c1	-0.082704075
59	0xbe80b7fb	-0.25140366
60	0xbe36097f	-0.1777706
61	0x3e093023	0.13397269
62	0xbe6eaf1a	-0.23308983
63	0xbc7bde0d	-0.015372765
64	0xbdaa6137	-0.083193235
65	0x3d027a1c	0.031854734
66	0xbd7fb3d2	-0.06242735
67	0xbe9e9031	-0.30969384
68	0xbe043998	-0.12912595
69	0x3e42685a	0.1898512
70	0xbe18460a	-0.14870468
71	0xbe97a476	-0.2961766
72	0x3e688754	0.22707874
73	0xbdd61c5f	-0.1045463
74	0xbe985000	-0.29748535
75	0xbd03889b	-0.0321127
76	0x3d67832c	0.05652158
77	0x3d8ca047	0.06866508
78	0xbca493e5	-0.020090053
79	0xbc6a68a5	-0.014307176
80	0x3e2127b5	0.15737803
81	0xbc394fdb	-0.011310543
82	0xbe23050d	-0.15919895
83	0xbe98a122	-0.29810435
84	0x3c925c3f	0.017866252
85	0x3e85cffb	0.2613524
86	0xbe895fce	-0.26830906
87	0xbbe219b3	-0.0069000362
88	0xbe15a2f4	-0.14612943
89	0xbd5e0551	-0.05420429
90	0xbe01a732	-0.12661436
91	0x3e9cba41	0.3061085
92	0x3e2d4996	0.16922602
93	0x3e82a144	0.2551366
94	0xbe471f4e	-0.19445536
95	0xbd9d0860	-0.07667613
96	0x3e9e9c44	0.30978596
97	0x3e44f21c	0.19232982
98	0xbe49140f	-0.19636558
99	0x3c3e4583	0.011613253
100	0xbe85a464	-0.26101983
101	0xbe4d51c2	-0.2005072
102	0x3dda508e	0.10659896
103	0xbd5d06e9	-0.05396167
104	0x3c8d2ae7	0.017232371
105	0xbc01ef0d	-0.007930529
106	0xbe0ac201	-0.13550569
107	0xbe6c58d9	-0.23080768
108	0xbe230971	-0.1592157
109	0xbe2e3daa	-0.1701571
110	0x3cabac8b	0.020956298
111	0xbe5f9cf4	-0.21837217
112	0x3e1d4b56	0.1536077
113	0x3e04a58e	0.12953779
114	0x3e5ba6c5	0.21450336
115	0xbe4bbf91	-0.19897296
116	0xbd9a6b60	-0.075400114
117	0xbe9aa783	-0.30205926
118	0x3e79932e	0.24372551
119	0x3dc868d5	0.0978562
120	0xbe8c510b	-0.2740558
121	0xbe5cf1c3	-0.215766
122	0x3e81cc93	0.2535139
123	0x3e16cc53	0.14726381
124	0x3e971ddd	0.2951497
125	0xbe08fcb8	-0.13377655
126	0x3d3150c2	0.043289907
127	0x3bc5fe91	0.0060423096
128	0xbe9cb4bf	-0.30606648
129	0xbea15837	-0.31512615
130	0xbe9a92d6	-0.30190152
131	0xbd8101b3	-0.06299152
132	0xbe1e78ac	-0.1547572
133	0x3ded1a42	0.11577274
134	0x3d8ca9d8	0.068683326
135	0x3e8c7d32	0.27439266
136	0x3e9ae716	0.3025443
137	0x3e6e374d	0.23263283
138	0xbe560a98	-0.20902479
139	0xbe71aca8	-0.2360102
140	0xbe90590b	-0.28192934
141	0x3d8c0de7	0.06838589
142	0xbe41635b	-0.18885557
143	0xbe633f5d	-0.2219214
144	0x3e720950	0.23636365
145	0xbdbb818e	-0.0915557
146	0xbd6ba3f7	-0.057529416
147	0x3d834efe	0.06411551
148	0xbe4e3e29	-0.201409
149	0x3d8da7a8	0.069167435
150	0x3e84feca	0.2597564
151	0x3dfa2cbd	0.122155644
152	0xbd5f6bae	-0.05454605
153	0x3ddb7acc	0.10716781
154	0x3e88eaa7	0.26741526
155	0xbdb01844	-0.08598378
156	0x3e82d763	0.25554952
157	0xbe69081c	-0.22757
158	0x3e7a2c58	0.24430978
159	0x3e57ed7e	0.2108669
160	0x3e031ee0	0.12804747
161	0x3b4bac44	0.003107802
162	0xbe40d5b7	-0.18831526
163	0x3cd9bcd6	0.026579302
164	0xbdfd2590	-0.1236068
165	0x3e7d1c71	0.24717881
166	0x3e64f2a7	0.2235819
167	0xbe9fd98b	-0.3122066
168	0xbd6237fa	-0.055229165
169	0xbe35cb93	-0.17753439
170	0x3e7f4780	0.24929619
171	0xbc1d5ec9	-0.009605118
172	0x3d876d6f	0.0661267
173	0xbbd7973b	-0.0065793074
174	0x3db28ef1	0.0871867
175	0xbe93c08d	-0.28857842
176	0x3e305042	0.17218116
177	0x3e916651	0.28398374
178	0x3e422036	0.189576
179	0xbe47df3c	-0.19518751
180	0xbd9127a6	-0.070876405
181	0x3e2bdb86	0.1678296
182	0xbda1429b	-0.07874032
183	0x3e92e522	0.2869044
184	0x3e40b42f	0.18818735
185	0x3e048c79	0.12944211
186	0xbb9f1606	-0.0048549203
187	0xbdb79b5d	-0.0896518
188	0x3e8ac44e	0.27102894
189	0x3e27df58	0.16393793
190	0xbd205940	-0.039147615
191	0xbe56c484	-0.20973402
192	0xbe5635ae	-0.20918915
193	0xbe83924a	-0.25697547
194	0x3e9878df	0.29779717
195	0x3e75760b	0.23970811
196	0x3dac20d1	0.08404697
197	0x3e6dbe99	0.23217238
198	0xbe866927	-0.262521
199	0xbe987938	-0.29779983
200	0xbe50b943	-0.20383172
201	0xbe3ba9b5	-0.18326457
202	0x3d8aedbe	0.06783627
203	0xbcf06b18	-0.029347941
204	0x3e8213e6	0.25405806
205	0xbe0adcec	-0.13560838
206	0x3d0460ab	0.032318752
207	0x3e7ef02f	0.2489631
208	0xbe0c98e0	-0.13730192
209	0xbe9283d8	-0.28616214
210	0x3d828107	0.06372266
211	0xbe24c053	-0.16088991
212	0x3e0f9a81	0.14023782
213	0x3e81b98b	0.2533687
214	0x3e1060dc	0.14099449
215	0xbde4686e	-0.11152731
216	0x3c6f6987	0.014612562
217	0x3dec1425	0.1152728
218	0x3e8f7688	0.2802012
219	0x3e52b4c5	0.2057677
220	0xbe888076	-0.26660508
221	0x3e84e8ce	0.25958866
222	0xbd0615da	-0.032735683
223	0xbcfe5c6f	-0.031049935
224	0x3dfe4902	0.12416269
225	0xbe8250c9	-0.2545226
226	0xbe55380b	-0.2082216
227	0x3e068087	0.13134967
228	0xbea1175d	-0.31463137
229	0xbdd45c5b	-0.10369178
230	0xbe5d99d4	-0.21640712
231	0xbda9fd72	-0.08300294
232	0x3e5c3585	0.21504791
233	0x3e6c2ee0	0.23064756
234	0x3e0a21d3	0.13489465
235	0x3d2cfd21	0.04223359
236	0x3e814232	0.25245816
237	0x3e7bdb8a	0.24595466
238	0x3d457e75	0.048216302
239	0x3df62e6f	0.12020575
240	0xbd5bf125	-0.05369677
241	0x3dc967ac	0.09834227
242	0x3e761f6f	0.24035428
243	0x3d54656d	0.05185454
244	0x3e38f1e3	0.18061022
245	0x3e9727df	0.29522607
246	0xbd6064b6	-0.054783545
247	0x3e41933c	0.18903822
248	0x3d8945a9	0.0670274
249	0xbe49fbbf	-0.1972494
250	0xbe5cd4f7	-0.21565615
251	0x3da3b3cf	0.0799328
252	0x3deb6b43	0.11495068
253	0x3e9efc73	0.31051978
254	0x3e11425c	0.1418547
255	0xbd07009d	-0.03295957

bias f4 [50]
0	0x3e332fe4	0.17498738
1	0x3da1651d	0.07880614
2	0xbd96e079	-0.073670335
3	0xbe4d4431	-0.20045544
4	0x3dfaf2ea	0.122533634
5	0xbcfbeea7	-0.030753447
6	0xbe2036e6	-0.15645942
7	0x3d9be8ce	0.07612763
8	0xbdb6550e	-0.08902942
9	0x3e3a660a	0.18202987
10	0xbdfa8664	-0.12232664
11	0xbe7a25c1	-0.24428464
12	0xbe9722e6	-0.29518813
13	0xbe9b4b2c	-0.3033079
14	0x3c61ddee	0.013785822
15	0x3e44ce56	0.19219336
16	0xbdb98b90	-0.090598226
17	0xbe780892	-0.2422202
18	0xbe54361a	-0.20723763
19	0x3e6b666e	0.22988293
20	0xbe5f16cb	-0.21786039
21	0x3dd8f96d	0.10594449
22	0xbe84027b	-0.25783142
23	0xbcef0039	-0.02917491
24	0x3dbf2c6b	0.09334644
25	0xbd1e7691	-0.038687292
26	0x3d7ff570	0.062489927
27	0xbd280862	-0.04102362
28	0xbe989549	-0.29801396
29	0x3e949cac	0.2902578
30	0x3e63e5c7	0.22255622
31	0x3e848f43	0.2589055
32	0x3df7ddd9	0.12102861
33	0xbcf5c6bb	-0.030001989
34	0xbd3df448	-0.046375543
35	0x3dd60e6b	0.10451969
36	0xbe1c65ba	-0.1527318
37	0x3da96b2c	0.082723945
38	0xbe89094d	-0.26764908
39	0x3dc0d02b	0.09414705
40	0xbcd3c589	-0.025851028
41	0xbe9132f6	-0.28359193
42	0x3e399235	0.1812218
43	0x3d1719b1	0.036889736
44	0xbe9386cc	-0.2881378
45	0x3e0d93e7	0.13825952
46	0xbd7428a2	-0.059609063
47	0xbcebd00a	-0.028785724
48	0xbe8f0c18	-0.27938914
49	0x3d89285a	0.066971496

weight f4 [20, 50]
0	0x3bc450e9	0.0059910906
1	0xbddb337e	-0.10703181
2	0xbcf25ed2	-0.02958623
3	0xbdff3e8c	-0.12463102
4	0x3dfbeb28	0.12300712
5	0x3d9c83c4	0.0764232
6	0xbd99d14b	-0.075106226
7	0x3d17d643	0.03706957
8	0x3ccde4d7	0.025133533
9	0xbd94c5f3	-0.07264318
10	0x3e0ffddc	0.14061683
11	0x3d0f909e	0.035050027
12	0xbdd346a0	-0.10316205
13	0xbcba5564	-0.022745796
14	0xbdca1326	-0.098669335
15	0x3c3ff268	0.011715509
16	0x3e05d2b3	0.13068657
17	0x3d6a4673	0.05719609
18	0x3b094266	0.0020944118
19	0x3c712d99	0.014720344
20	0x3d2c5bc9	0.04207972
21	0xbdf572a7	-0.11984759
22	0xbdb33e7c	-0.08752152
23	0x3da2cba8	0.079490006
24	0x3ca0cd76	0.019629221
25	0xbdaa16f5	-0.0830516
26	0x3e0feb8f	0.14054702
27	0xbd6648bc	-0.05622171
28	0x3df2daa0	0.11858106
29	0xbc50efd2	-0.01275249
30	0xbd92b0bd	-0.071626164
31	0x3c5532d1	0.013012604
32	0xbdadfb35	-0.084951796
33	0x3dc74d8c	0.09731588
34	0xba9d80ed	-0.0012016572
35	0xbc54f419	-0.012997651
36	0xbd6b096a	-0.057382025
37	0xbdfa29e5	-0.12215022
38	0x3e0cfb11	0.13767649
39	0xbd3f795a	-0.04674659
40	0x3df789b4	0.12086812
41	0x3df85e0c	0.12127313
42	0x3dac58be	0.08415364
43	0x3d474cc8	0.04865721
44	0x3bf19dbf	0.007373541
45	0xbdaed4b5	-0.085366644
46	0x3d3be33e	0.045871012
47	0x3de49c11	0.1116258
48	0x3c87d0cc	0.016579054
49	0xbd256a19	-0.040384386
50	0x3da1e932	0.079058066
51	0x3d4ce4cb	0.05002288
52	0xbe0d1f6a	-0.13781515
53	0x3c437974	0.011930812
54	0xbe0a6903	-0.13516621
55	0x3b6bf54f	0.003600437
56	0xbd95a4b7	-0.073068075
57	0xbd7d69a3	-0.06186832
58	0xbdd5b0e9	-0.104341336
59	0xbe0bd6bb	-0.13656132
60	0x3dc9ebaa	0.098594025
61	0xbc6f7fd1	-0.014617876
62	0xbdf98653	-0.121838234
63	0xbcd13fcc	-0.025543116
64	0x3df1f37d	0.1181402
65	0xbde96917	-0.113969974
66	0x3dee5946	0.11638121
67	0xbdbdfa01	-0.092762
68	0x3d122d47	0.03568771
69	0xbd71c74e	-0.059027962
70	0x3d13b575	0.036061723
71	0x3dce50c3	0.10073998
72	0x3d8cc887	0.06874185
73	0x3ddb19e1	0.106982954
74	0xbdd89156	-0.10574596
75	0x3df0029d	0.117192484
76	0x3d34d128	0.04414478
77	0xbd2236cf	-0.03960305
78	0x3e0fd561	0.14046241
79	0xbd9dd550	-0.07706702
80	0x3d6baeca	0.05753974
81	0xbd7a0dc7	-0.061048295
82	0xbe0937cf	-0.13400196
83	0x3d668183	0.056275856
84	0xbd258186	-0.040406726
85	0xbdc7c05d	-0.09753487
86	0xbdae349e	-0.0850613
87	0xbd344194	-0.044007853
88	0xbda3ac0c	-0.079918
89	0xbd1d135d	-0.038348544
90	0xbdd93932	-0.10606612
91	0x3d9894a4	0.07450226
92	0x3e0fa692	0.14028385
93	0x3d518a4a	0.051157273
94	0x3dfef7ef	0.12449633
95	0x3d350740	0.044196367
96	0xbdc437d8	-0.09580964
97	0xbd7edfc9	-0.062225137
98	0x3d72aa40	0.059244394
99	0x3c400385	0.011719589
100	0xbb8bd12e	-0.0042668795
101	0xbd67349b	-0.056446653
102	0x3df5b9ce	0.1199833
103	0xbdab7223	-0.08371379
104	0xbdabc032	-0.08386268
105	0xbdb6ae60	-0.08919978
106	0x3c70669e	0.014672903
107	0x3dd5cb72	0.10439195
108	0x3d59727d	0.0530877
109	0x3d8b5bcf	0.068046205
110	0xbdf147d5	-0.11781279
111	0x3bde7b0d	0.006789571
112	0x3db428fd	0.087968804
113	0x3cda90a8	0.026680306
114	0x3ceba8c3	0.028766995
115	0xbdb871a2	-0.09006049
116	0xbcbd86ce	-0.023135569
117	0xbdf7140f	-0.12064373
118	0x3c930f49	0.017951624
119	0x3d855992	0.06511225
120	0xbdb1f0f6	-0.08688538
121	0xbc32e280	-0.01091826
122	0x3dca5215	0.09878937
123	0x3c20679a	0.009790326
124	0x3db270ea	0.08712943
125	0x3d3159bd	0.04329847
126	0xbda42d08	-0.080164015
127	0x3c6bcff9	0.014392846
128	0xbd20946f	-0.039204057
129	0xbdcb0e03	-0.09914782
130	0xbcf90a45	-0.030400405
131	0xbc4157a3	-0.011800679
132	0x3df713f6	0.12064354
133	0xbdda1fcf	-0.10650598
134	0xbd86d06d	-0.06582723
135	0xbd78eab3	-0.0607707
136	0x3d43302e	0.04765337
137	0xbd37ae60	-0.04484403
138	0xbd2db3ef	-0.042407926
139	0xbe07cca9	-0.13261665
140	0x3c8df8c3	0.017330533
141	0x3df4daab	0.1195577
142	0x3dda78b1	0.10667551
143	0xbdb59b58	-0.0886752
144	0xbd93a3be	-0.07208966
145	0xbdb3fe01	-0.08788682
146	0xbdfd466f	-0.1236695
147	0x3ba1dfda	0.0049400153
148	0xbdca5faa	-0.09881528
149	0xbe08d4b5	-0.13362391
150	0xbdc130f3	-0.094331644
151	0xbddea5c2	-0.108714595
152	0x3debb868	0.11509782
153	0x3d9e33ab	0.07724699
154	0x3da2a9a5	0.079425134
155	0xbd4ad811	-0.049522463
156	0x3dd230b3	0.10263195
157	0x3d622476	0.055210553
158	0x3c84b3a4	0.01619894
159	0x3dca51d5	0.098788895
160	0xbd16c39b	-0.036807638
161	0xbd80d0e6	-0.06289844
162	0xbcddd338	-0.027078256
163	0xbc9e541b	-0.019327214
164	0x3e0d9146	0.13824949
165	0xbbf4b298	-0.007467579
166	0x3de47f21	0.111570604
167	0x3e084e61	0.13311149
168	0x3bd6ed89	0.006559078
169	0xbd610faf	-0.054946598
170	0x3dc7d89e	0.09758113
171	0xbd7ca98e	-0.061685137
172	0x3d439a83	0.047754776
173	0x3cea5782	0.02860618
174	0xbd54b040	-0.051925898
175	0xbd4e5271	-0.05037159
176	0x3d3c0a3e	0.045908205
177	0xbe004d5f	-0.12529515
178	0x3c1df923	0.009641918
179	0x3dad3f4c	0.084593385
180	0x3d721c87	0.059109237
181	0xbd8395ab	-0.06425031
182	0x3c9c0a69	0.019047933
183	0xbe107470	-0.14106917
184	0x3da5db33	0.080984496
185	0x3dbd1de4	0.09234217
186	0xbd6bd07c	-0.057571873
187	0xbd3ebfe1	-0.04656971
188	0xbdb45a83	-0.08806326
189	0x3c87d431	0.016580673
190	0x39a3705c	0.00031173497
191	0xb81a4a6c	-3.6785772e-05
192	0x3dab6ba4	0.0837014
193	0x3def6f3a	0.11691137
194	0xbd48734a	-0.048938073
195	0x3be73710	0.0070561245
196	0x3d8ff630	0.070293784
197	0x3e02cf43	0.12774377
198	0xbdc8fac1	-0.098134525
199	0x3e1028b3	0.14078026
200	0xbd9e192d	-0.07719646
201	0x3d867b6e	0.06566511
202	0xbdca00a8	-0.098634064
203	0x3e09d34e	0.13459513
204	0x3de1bbab	0.11022123
205	0xbd1be0e2	-0.03805626
206	0xbd20271d	-0.0390998
207	0xbdd280f4	-0.10278502
208	0xbd47f270	-0.04881519
209	0xbde8bb2b	-0.113638245
210	0xbd1ddf73	-0.038543176
211	0xbddfc727	-0.10926657
212	0xbdbfba06	-0.09361653
213	0xbcdc020c	-0.026856445
214	0xbdfd1468	-0.12357408
215	0xbda5a1ff	-0.08087539
216	0x3e0df881	0.13864328
217	0x3df06095	0.117371716
218	0x3dcc1ff4	0.09967032
219	0x3dac6185	0.08417038
220	0xbd88ba9a	-0.066762164
221	0x3ca39009	0.019966142
222	0xbdabd5ee	-0.08390413
223	0xbdd1adac	-0.102382034
224	0x3d5ba335	0.053622443
225	0x3c8ff5ce	0.017573263
226	0xbdb44989	-0.08803088
227	0xbe0d2097	-0.13781963
228	0x3d30e7ca	0.0431898
229	0x3db0af3f	0.086271755
230	0xbc1ad978	-0.009451263
231	0xbdd8db02	-0.105886474
232	0x3c841cfd	0.016127104
233	0x3d972bee	0.07381426
234	0x3d9b0c14	0.07570663
235	0x3d3a13aa	0.04542891
236	0xbdd7e4a3	-0.10541656
237	0xbdf28e8f	-0.11843597
238	0xbda69b9f	-0.08135151
239	0xbe03852f	-0.12843774
240	0x3d4ca266	0.049959563
241	0x3d1096f5	0.035300214
242	0x3ca88c5d	0.020574743
243	0x3dacd159	0.084383674
244	0xbd1b0a62	-0.0378517
245	0xbd0a2093	-0.03372247
246	0x3d87383a	0.06602521
247	0x3d35f813	0.044426035
248	0xbbd50261	-0.0065005277
249	0x3dc083c6	0.09400134
250	0xbc0cf5b6	-0.008603504
251	0xbd65bef8	-0.056090325
252	0x3cc55a0a	0.024090786
253	0x3c605bac	0.013693731
254	0xbcd129bc	-0.025532596
255	0xbdf51eb8	-0.1196875

bias f4 [20]
0	0xbdf5b511	-0.11997426
1	0x3e086168	0.13318408
2	0x3d23ab08	0.03995803
3	0xbdd91d7a	-0.10601325
4	0x3e019b01	0.12656786
5	0xbda71f30	-0.081602454
6	0x3d4cac7e	0.04996919
7	0xbcce9e50	-0.025221974
8	0x3d457e5e	0.048216216
9	0x3d9ea404	0.07746127
10	0x3d4830ed	0.048874784
11	0x3d05ebb8	0.032695502
12	0xbc1e6060	-0.009666532
13	0x3de8d14a	0.11368044
14	0x3c02e19f	0.007988363
15	0x3da95e37	0.08269923
16	0x3d313ca4	0.043270722
17	0xbe07d284	-0.13263899
18	0x3df7cd58	0.12099713
19	0xbd8729be	-0.065997586

weight f4 [5, 50]
0	0x3df4a057	0.11944645
1	0xbd77cde9	-0.060499106
2	0x3df85b35	0.12126771
3	0x3db3eb40	0.08785105
4	0xbda8829e	-0.08228038
5	0x3c55c8de	0.013048379
6	0xbc123f53	-0.0089262305
7	0xbc276909	-0.010217913
8	0xbd2ae079	-0.04171798
9	0x3d9b88aa	0.07594426
10	0x3d153147	0.036423948
11	0x3d2ea9d9	0.042642448
12	0x3ddfa3a5	0.109198846
13	0x3de588a8	0.11207706
14	0x3da93fab	0.08264097
15	0xbdbd618d	-0.09247122
16	0xbdc32a94	-0.095296055
17	0xbb745ae9	-0.0037285632
18	0xbdf67ed5	-0.1203591
19	0xbd803a6f	-0.06261145
20	0x3d9d59aa	0.07683118
21	0x3dfce04f	0.12347471
22	0x3d227227	0.039659645
23	0x3dec37a4	0.1153405
24	0x3d3a0167	0.045411494
25	0x3dd0b673	0.101910494
26	0x3d07864d	0.033087064
27	0xbd37c5de	-0.044866435
28	0xbdc387ea	-0.09547408
29	0x3ca866ad	0.020556772
30	0x3db11f1a	0.0864851
31	0x3daaf70c	0.08347902
32	0x3e078352	0.13233688
33	0x3d8d273c	0.06892249
34	0xbc9af6eb	-0.018916568
35	0x3ddde4dc	0.10834667
36	0x3df67788	0.120345175
37	0xbda572e3	-0.080785535
38	0x3df691fa	0.120395616
39	0xbd89cad6	-0.06728141
40	0xbd30a0e2	-0.04312218
41	0x3dbadb5c	0.09123871
42	0x3de27b88	0.11058718
43	0x3ddad2d7	0.10684746
44	0xbd09e838	-0.033668727
45	0xbdb2942e	-0.08719669
46	0xbe08c21a	-0.13355294
47	0xbdd1e3ef	-0.10248553
48	0x3da65ebb	0.08123537
49	0xbddd8569	-0.108164616
50	0x3e0cf444	0.13765055
51	0xbda30a35	-0.07960931
52	0xbb7dd8d0	-0.0038733967
53	0x3a1585ac	0.00057038176
54	0xbe0f4b54	-0.13993579
55	0xbdca0c70	-0.098656535
56	0xbd64770d	-0.0557776
57	0x3e0462ad	0.12928267
58	0xbd841456	-0.06449191
59	0x3cc85925	0.02445657
60	0xbe04abc2	-0.12956145
61	0x3e06ce9c	0.13164753
62	0x3dae5720	0.085127115
63	0xbd7c4d74	-0.061597303
64	0x3d034f86	0.03205826
65	0xbd746a8a	-0.059671916
66	0x3d3c4192	0.04596097
67	0xbd02d050	-0.031936944
68	0xbd5af477	-0.053455796
69	0xbd903cb4	-0.07042828
70	0xba9dbb31	-0.0012033937
71	0xbd899b44	-0.06719068
72	0x3dc6cde1	0.09707237
73	0x3e05e98f	0.13077377
74	0x3da7f415	0.08200852
75	0x3d958598	0.073008716
76	0x3dee1a70	0.11626136
77	0x3e0f0c2c	0.13969487
78	0x3db33534	0.08750382
79	0x3dddb55c	0.10825607
80	0x3dff7752	0.124739304
81	0x3dad8c8a	0.08474071
82	0xbdd31aa1	-0.103078134
83	0x3e0ae16b	0.13562553
84	0xbe059745	-0.13045986
85	0x3e009382	0.1255627
86	0x3d6af461	0.057361964
87	0x3d799373	0.060931634
88	0xbdf7fff5	-0.12109367
89	0xbb68e4b3	-0.0035536706
90	0xbdcec63a	-0.100964025
91	0xbcb89e3e	-0.022536393
92	0x3e0baedc	0.13640922
93	0x3d9a2837	0.075272016
94	0x3daaec78	0.08345884
95	0xbdb3b2d0	-0.0877434
96	0x3e037e29	0.12841095
97	0xbded1781	-0.11576749
98	0xbdffb14d	-0.12484989
99	0x3ce650b0	0.028114647
100	0x3d726ae5	0.059183974
101	0x3d2e2a5f	0.042520877
102	0xbd764d99	-0.060132597
103	0x3dbb528d	0.09146605
104	0xbd5c8501	-0.05383778
105	0x3c57605f	0.013145535
106	0xbe02e139	-0.12781228
107	0x3db23965	0.087023534
108	0xbe0c70b8	-0.13714874
109	0x3de72fce	0.11288415
110	0x3bc78820	0.0060892254
111	0x3d8167c3	0.06318619
112	0xbd15bf0e	-0.036559157
113	0xbde3991b	-0.11113187
114	0xbda70785	-0.08155731
115	0x3da3c4aa	0.07996495
116	0x3d73163e	0.059347384
117	0xbe04b49f	-0.12959526
118	0x3df2e4df	0.1186006
119	0xbdb5d9b4	-0.08879414
120	0xbe07e77c	-0.13271898
121	0xbde88756	-0.11353938
122	0xbe0b8ef6	-0.13628754
123	0xbde578af	-0.11204659
124	0xbe0a8059	-0.13525523
125	0x3cf1dbb0	0.0295237
126	0x3d64a0e0	0.055817485
127	0xbd5b0ab8	-0.05347702
128	0x3d71e79a	0.059058763
129	0x3dd87546	0.10569243
130	0xbc99df42	-0.018783215
131	0x3bf197aa	0.007372816
132	0x3d51905a	0.051163055
133	0x3bf176da	0.0073689045
134	0x3d26295f	0.0405668
135	0x3dbc8392	0.092047825
136	0xbd2dd0d6	-0.04243549
137	0x3dbb34cf	0.09140932
138	0x3d8367ed	0.06416307
139	0x3cc4c689	0.02402045
140	0xbe050c5d	-0.12992997
141	0xbe0a06f9	-0.13479222
142	0xbd7b8521	-0.06140626
143	0x3d5e7d82	0.054318912
144	0x3d250ae8	0.040293604
145	0xbdcb3e92	-0.09924044
146	0xbda82d62	-0.08211781
147	0xbddcb1c6	-0.10776095
148	0xbd8e1a50	-0.069386125
149	0xbce7380e	-0.028224971
150	0xbddda7b7	-0.10823005
151	0xbd9ee548	-0.07758576
152	0x3db9c43f	0.09070634
153	0x3d069e48	0.032865793
154	0x3dad98b3	0.08476391
155	0x3e00e1d2	0.12586144
156	0xbe0e40cb	-0.13891904
157	0x3dcf5c01	0.1012497
158	0xbdd4e3ec	-0.10395035
159	0x3d18f3d4	0.037341908
160	0x3d3e64d2	0.04648287
161	0xbe0d9cb4	-0.13829309
162	0x3ca0db52	0.01963583
163	0xba1f94ac	-0.00060875225
164	0xbe0afd04	-0.1357308
165	0xbd80343d	-0.06259964
166	0xbd857e52	-0.06518234
167	0x3d592089	0.053009544
168	0xbe07e643	-0.13271432
169	0x3d9df92a	0.0771354
170	0xbd48c922	-0.04901994
171	0xbd4630d3	-0.048386406
172	0xbd5bc2a8	-0.053652436
173	0xbb9f9ac1	-0.004870743
174	0x3d9a9cec	0.07549462
175	0xbd09cf14	-0.03364475
176	0xbe00813b	-0.12549298
177	0x3e019ba6	0.12657031
178	0xbc634ffe	-0.013874052
179	0x3d05a39d	0.032626737
180	0xbd9309f3	-0.07179632
181	0x3ccca613	0.024981534
182	0x3d2e406b	0.042541903
183	0xbd892d30	-0.06698072
184	0xbda90d80	-0.08254528
185	0xbde5416c	-0.11194119
186	0xbc617969	-0.013761857
187	0x3dbac692	0.091199055
188	0x3de40a16	0.11134736
189	0x3d664a33	0.056223106
190	0x3dae4100	0.085084915
191	0xbb972159	-0.0046121296
192	0x3b35077f	0.0027622876
193	0xbdf6aa0b	-0.12044152
194	0xbdce434a	-0.10071428
195	0x3d0ac45b	0.033878665
196	0xbe0750d0	-0.13214421
197	0x3de01100	0.109407425
198	0xbdbca7a7	-0.09211665
199	0x3e077776	0.13229164
200	0x3d96e93e	0.07368706
201	0xbe0afaec	-0.13572282
202	0xbd2a7af8	-0.04162118
203	0x3d2c2450	0.042026818
204	0xbdfc3479	-0.12314696
205	0xbe00a7fa	-0.12564078
206	0xbdb2584e	-0.08708249
207	0x3ca3bc96	0.019987386
208	0xbdb51148	-0.08841187
209	0x3dfcff5e	0.12353395
210	0x3d92e4ca	0.07172544
211	0x3d4e024e	0.050295167
212	0x3de30632	0.11085166
213	0xbc9742e7	-0.018464519
214	0x3cbdc888	0.02316691
215	0xbb578396	-0.0032884828
216	0xbd90f106	-0.070772216
217	0xbbfc3cb6	-0.007697667
218	0x3ca928b5	0.020649293
219	0x3ddd9848	0.10820061
220	0x3cc73fc9	0.024322407
221	0x3d88ea69	0.06685335
222	0x3d832429	0.064033814
223	0x3e09c0cc	0.13452452
224	0xbba15ee1	-0.0049246405
225	0xbd82b5f5	-0.06382362
226	0x3cbe1f39	0.023208247
227	0xbe0db3be	-0.13838097
228	0xbdb109f5	-0.08644477
229	0xbb268730	-0.0025410168
230	0xbd122cc4	-0.035687223
231	0xbd97e8e7	-0.074174695
232	0xbd81de55	-0.063412346
233	0xbde143de	-0.10999273
234	0x3bae8c7c	0.0053268056
235	0x3d2f4c25	0.042797226
236	0xbb850668	-0.0040596016
237	0xbddc2c21	-0.107506044
238	0x3c3db309	0.01157833
239	0xbddfdaef	-0.1093043
240	0xbdccd532	-0.10001601
241	0x3d649e6f	0.055815157
242	0xbd10bfcf	-0.035339173
243	0xbe100e0b	-0.14067857
244	0xbd81b78f	-0.06333839
245	0xbd6434a2	-0.055714257
246	0x3b91fbba	0.004455057
247	0x3d609b93	0.054835867
248	0x3dd9f46e	0.106423244
249	0xbd9013c5	-0.07035021

bias f4 [5]
0	0x3e093333	0.13398437
1	0xbd3129d5	-0.043252785
2	0x3db19714	0.08671394
3	0xbdae47f9	-0.085098214
4	0x3d9fc8e9	0.078019924
